_________________________________________________________________
Layer (type)                 Output Shape              Param #   
=================================================================
conv2d_1 (Conv2D)            (None, 20, 20, 32)        8224      
_________________________________________________________________
batch_normalization_1 (Batch (None, 20, 20, 32)        128       
_________________________________________________________________
conv2d_2 (Conv2D)            (None, 9, 9, 64)          32832     
_________________________________________________________________
batch_normalization_2 (Batch (None, 9, 9, 64)          256       
_________________________________________________________________
conv2d_3 (Conv2D)            (None, 3, 3, 128)         131200    
_________________________________________________________________
batch_normalization_3 (Batch (None, 3, 3, 128)         512       
_________________________________________________________________
flatten_1 (Flatten)          (None, 1152)              0         
_________________________________________________________________
dense_1 (Dense)              (None, 512)               590336    
_________________________________________________________________
dense_2 (Dense)              (None, 3)                 1539      
=================================================================
Total params: 765,027
Trainable params: 764,579
Non-trainable params: 448
_________________________________________________________________
episode: 0/1000, score: -125.0
Epsilon:
0.9902473552461276
Gamma:
0
Memory:
100
Model Saved
episode: 1/1000, score: -130.0
episode: 2/1000, score: -130.0
episode: 3/1000, score: -130.0
episode: 4/1000, score: 84.0
…
